model.pt (torch, 382245 bytes, 10 tensors)

layers.0.weight f4 [32, 3, 4, 4]
-0.019069001 0.03752425 0.16052535 0.0744973 0.12861383 0.009640029 0.020986276 0.1029309
0.04879546 0.1553569 0.19897088 0.06278627 0.11385503 -0.0031265714 -0.012486531 0.17373109
0.026473826 -0.0051658326 0.09831498 0.12713419 0.03937113 0.08187786 0.078742094 -0.081788376
0.026176635 0.0029041637 -0.019898172 0.1874919 0.11706917 0.056890424 0.090652436 0.059498258
-0.038463116 -0.06583054 -0.21862635 -0.18554612 -0.1890236 -0.078118265 -0.18747692 -0.08368276
-0.11704171 -0.13799183 -0.12857772 -0.21720229 -0.110167265 -0.16015702 -0.024971152 -0.31330702
-0.017568363 0.08449702 -0.055877972 0.059012912 0.0815779 0.048383694 -0.014666853 0.04450623
0.061167512 0.078283034 -0.16225271 0.08807026 -0.0057125115 -0.018993374 0.06923276 -0.016709069
0.111455746 0.0912596 -0.071534455 -0.018968008 -0.061429676 -0.0645054 -0.0064519956 -0.06519992
-0.084143914 -0.0064250575 -0.14805084 0.14253923 0.04553308 -0.14829402 0.116099544 -0.08573059
-0.15188609 -0.050135925 0.03196685 -0.0033086035 -0.016091246 -0.05864737 0.05788517 -0.050458476
0.0033905753 0.096787326 0.013688498 0.056780543 -0.049252953 0.07050388 0.0541283 -0.055638768
0.12552091 0.1166658 -0.035716012 0.09476776 -0.013682881 0.0791771 -0.13738231 -0.005081486
0.034766648 -0.07812585 0.05511707 -0.041182492 -0.07726975 0.017655604 -0.0015361934 0.04427556
0.020914298 -0.090077914 -0.034006186 -0.055226002 -0.120971404 0.085811235 -0.1016865 0.14070334
-0.103039645 0.04636999 0.15151808 -0.087153494 0.072442934 -0.037856918 -0.06624358 0.015563644
-0.12522283 0.019701207 -0.032615487 0.043456417 -0.045487825 0.14295377 -0.15440238 0.08095031
0.07488375 0.035161648 0.016654313 0.06727526 0.13212179 -0.12541503 -0.008759885 -0.11553569
-0.0515724 0.076360814 -0.041904308 0.14240913 -0.0054271515 -0.0032716133 -0.04406897 -0.033739395
-0.12201573 0.051988974 -0.1363596 -0.15409106 0.05788204 -0.16313423 -0.15112957 -0.028688261
0.0012508978 0.12353955 -0.050836205 -0.012592549 0.11206445 -0.049757034 -0.0460593 0.1030401
-0.081370935 0.18512307 0.063947335 0.01788522 -0.044316374 0.14354128 0.0136187775 0.12414077
-0.046562847 -0.056622814 -0.08445111 0.070623145 0.09610435 -0.11364425 -0.020944912 -0.034669265
-0.005040188 0.07076314 0.051803093 0.023350675 -0.03130599 0.024911717 0.0049827704 0.0010820641
-0.11687444 -0.16235512 -0.13002789 -0.01091169 -0.060237654 -0.0067941607 -0.11847911 -0.03071244
-0.00360344 -0.13477711 -0.048125837 0.01058595 -0.13724303 -0.16889423 -0.046916544 0.03556184
0.03498393 0.03509723 0.025467217 -0.043138918 0.19343652 0.05658564 0.17919067 0.049584657
-0.0041695284 0.14122596 0.09006067 0.061829213 -0.008767074 0.14808597 0.027960721 -0.061966404
-0.06319243 0.12013723 0.058689866 -0.024117913 -0.07085879 -0.045217946 -0.12680821 0.0037420387
0.103288256 0.017481657 0.037196238 0.045984924 0.03838855 -0.0094183 0.012193408 -0.08603251
-0.11413589 0.036317017 0.1577249 -0.07606721 -0.046594832 0.031391505 0.09264717 -0.12870926
-0.091879345 0.09591085 0.005005206 -0.04563744 -0.09941215 0.11585221 0.12863044 -0.010139098
00000000: 9836 9cbc 07b3 193d c260 243e 0a92 983d
00000010: 58b3 033e 36f1 1d3c 69eb ab3c 70cd d23d
00000020: c0dd 473d e115 1f3e 06bf 4b3e 1796 803d
00000030: d32c e93d 2ae7 4cbb 4f94 4cbc 90e6 313e
00000040: a3df d83c 2546 a9bb 5d59 c93d 772f 023e
00000050: 9f43 213d 94af a73d 8943 a13d aa80 a7bd
00000060: 6270 d63c c853 3e3b 7e01 a3bc e0fd 3f3e
00000070: f6c1 ef3d ef05 693d fca7 b93d 72b4 733d
00000080: 808b 1dbd 2ad2 86bd 96df 5fbe cdff 3dbe
00000090: 678f 41be 78fc 9fbd f3f9 3fbe de61 abbd
000000a0: 90b3 efbd bb4d 0dbe e1a9 03be 476a 5ebe
000000b0: 609f e1bd 3400 24be 4d90 ccbc c769 a0be
000000c0: 87eb 8fbc c60c ad3d 4de0 64bd 86b7 713d
000000d0: 5012 a73d fb2d 463d 3d4d 70bc 2a4c 363d
000000e0: c98a 7a3d db52 a03d 9325 26be 2e5e b43d
000000f0: 0530 bbbb fe97 9bbc e8c9 8d3d 75e1 88bc
00000100: e942 e43d 50e6 ba3d a880 92bd cc62 9bbc
00000110: af9d 7bbd 681b 84bd 436b d3bb 8987 85bd
00000120: a553 acbd 4a89 d2bb a49a 17be cef5 113e
00000130: e580 3a3d 63da 17be 99c5 ed3d 8593 afbd
00000140: 0788 1bbe 545b 4dbd acef 023d 28d5 58bb
00000150: cad1 83bc 3a38 70bd 0019 6d3d 8cad 4ebd
00000160: 6a34 5e3b 6f38 c63d b945 603c b792 683d
00000170: 77bd 49bd 5764 903d a3b5 5d3d 7ae5 63bd
00000180: 8e88 003e 7bee ee3d f44a 12bd 9915 c23d
00000190: 2a2e 60bc 9a27 a23d f3ad 0cbe 9882 a6bb
000001a0: 7967 0e3d 7200 a0bd 70c2 613d f9ae 28bd
000001b0: 9a3f 9ebd 7ca2 903c 195a c9ba 4a5a 353d
000001c0: 7654 ab3c c57a b8bd 124a 0bbd a934 62bd
000001d0: dbbf f7bd cdbd af3d 0341 d0bd 8914 103e
000001e0: 7306 d3bd 75ee 3d3d 8e27 1b3e 887d b2bd
000001f0: f65c 943d db0f 1bbd b7aa 87bd a7fe 7e3c
00000200: 6a3a 00be 6d64 a13c d197 05bd 5bff 313d
00000210: 7151 3abd 7962 123e a81b 1ebe 47c9 a53d
00000220: a75c 993d a905 103d a06e 883c 9dc7 893d
00000230: ef4a 073e cc6c 00be 9f85 0fbc fa9d ecbd
00000240: 953d 53bd 0f63 9c3d daa3 2bbd b3d3 113e
00000250: 3fd6 b1bb 9068 56bb aa81 34bd 5232 0abd
00000260: 62e3 f9bd 64f2 543d daa1 0bbe 0cca 1dbe
00000270: b815 6d3d a90c 27be b6c1 1abe a503 ebbc
00000280: 2af5 a33a 4e02 fd3d a039 50bd fb50 4ebc
00000290: 0c82 e53d 08ce 4bbd ada8 3cbd b006 d33d
000002a0: cea5 a6bd e790 3d3e d2f6 823d 0684 923c
000002b0: 1685 35bd 7cfc 123e 4b21 5f3c 843d fe3d
000002c0: afb8 3ebd 53ed 67bd b4f4 acbd dea2 903d
000002d0: 5cd2 c43d 51be e8bd aa94 abbc 5c01 0ebd
000002e0: 2928 a5bb 44ec 903d 7b2f 543d ea49 bf3c
000002f0: b63a 00bd a813 cc3c 8246 a33b 0cd4 8d3a
00000300: de5b efbd 6c40 26be 0826 05be f2c6 32bc
00000310: c2bb 76bd 8da1 debb 2da5 f2bd a898 fbbc
00000320: b127 6cbb 0303 0abe 991f 45bd b170 2d3c
00000330: 7089 0cbe 9cf2 2cbe 902b 40bd 4ba9 113d
00000340: 4f4b 0f3d 1dc2 0f3d a0a0 d03c 6fb2 30bd
00000350: 3914 463e 58c6 673d c27d 373e 4819 4b3d
00000360: 8aa0 88bb 8a9d 103e bb71 b83d a140 7d3d
00000370: c6a3 0fbc d9a3 173e e20d e53c 7cd0 7dbd
00000380: 086b 81bd 820a f63d c964 703d ee92 c5bc
00000390: 6a1e 91bd 7436 39bd 03da 01be fe3c 753b
000003a0: cb88 d33d b135 8f3c 155b 183d b05a 3c3d
000003b0: 503d 1d3d 374f 1abc dcc6 473c d031 b0bd
000003c0: 14c0 e9bd 27c1 143d a382 213e 20c9 9bbd
000003d0: 39da 3ebd 6194 003d cdbd bd3d 5ccc 03be
000003e0: 3d2b bcbd e86c c43d b602 a43b 53ee 3abd
000003f0: 9998 cbbd ec43 ed3d b3b7 033e 761e 26bc

layers.0.bias f4 [32]
0.14658831 -0.29986036 -0.20856321 0.19520457 0.3302487 -0.28708005 -0.41408437 -0.38231453
-0.20855847 -0.16279957 -0.30255198 0.04124261 -0.040990513 -0.12827075 0.19530462 -0.3956363
-0.0037797266 -0.28711617 -0.02122044 -0.21177095 -0.41547495 -0.058028135 0.35065398 -0.19202809
-0.19686203 -0.19904959 -0.40974203 0.18487002 0.25149378 0.40094906 -0.41578048 0.25929695
00000000: 3f1b 163e 4c87 99be 9891 55be b5e3 473e
00000010: 5c16 a93e 28fc 92be de02 d4be bbbe c3be
00000020: 5a90 55be eeb4 26be 18e8 9abe 03ee 283d
00000030: abe5 27bd 6859 03be effd 473e d790 cabe
00000040: 4ab5 77bb e400 93be 7dd6 adbc 7cda 58be
00000050: 22b9 d4be e9ae 6dbd eb88 b33e 03a3 44be
00000060: 3396 49be a8d3 4bbe b5c9 d1be 914e 3d3e
00000070: cbc3 803e 3249 cd3e 2ee1 d4be 92c2 843e

layers.4.weight f4 [32, 32, 3, 3]
-0.034088016 0.04061053 -0.049175587 0.008023482 0.015982037 -0.009775524 0.042257365 0.02885182
-0.025675096 -0.024608785 0.023445658 0.015461089 0.044199362 0.051456854 0.055075232 0.009909553
0.01745272 0.028412232 0.012513693 0.019796828 -0.00071676454 0.011369467 -0.01215667 -0.0058262814
-0.027080335 -0.020787599 0.01884098 -0.029027825 -0.04933166 -0.035553183 -0.051709104 -0.030301465
0.0437453 0.029008279 -0.006635801 0.0015143267 -0.09085358 0.009120999 0.007600822 0.06282488
0.011595777 0.0104087675 0.051230546 0.03185267 0.055790383 -0.07358062 0.022795998 -0.012575844
-0.09258301 0.019173142 0.022544082 0.02722164 0.02614482 0.026875433 -0.007058584 0.022648698
0.004621907 -0.036797013 -0.02328244 0.010856233 0.031682722 0.06117916 0.0400386 -0.09540786
0.0110817 -0.033841904 0.024565829 0.08172982 0.019094246 -0.007205171 0.10561685 -0.087602906
0.036288053 -0.07554612 0.020316165 0.02604882 0.031531684 0.07794717 0.0031070502 0.06566828
0.021720566 -0.03380239 -0.0010737 0.002630083 0.021385243 0.00578868 -0.0073483163 -0.022562593
0.060395055 0.0054625794 0.028898364 -0.027683118 -0.0026392487 0.0077271746 -0.022796527 0.019597972
-0.054875378 -0.053820256 0.0553638 -0.003599024 0.026603771 0.0058253417 0.028454801 0.07596817
0.06277866 -0.0067772027 -0.040395234 0.03387328 -0.004115495 -0.07467905 -0.008892711 0.12530135
0.018037818 0.111091435 -0.057553343 0.0024084789 0.10860541 0.043756124 0.011027024 0.042243637
0.06437921 -0.0123763615 0.008618886 0.051455583 -0.0076886625 0.04406811 -0.20991698 -0.1293208
-0.035859473 -0.13059674 -0.10969708 -0.105732664 -0.120636374 -0.04071026 -0.059664983 0.046052694
0.016673034 -0.07854937 0.0021137132 0.082301185 -0.090631984 0.0747135 0.057259295 -0.00039814168
-0.07055402 -0.09831349 -0.058097266 0.040161856 -0.009070693 0.03260125 -0.10489402 -0.022685435
0.004019358 -0.0035891398 0.048004203 -0.03499812 0.055232525 0.027226435 0.021484978 -0.031836536
-0.004707782 0.06108408 -0.029454041 0.029299596 -0.0056594256 0.024588443 0.038982783 -0.048513927
0.028529262 -0.03841133 -0.15746695 0.003243821 -0.0055632284 0.0280437 0.0013458835 0.009975077
0.029411359 -0.00748012 0.0055029234 0.048719104 -0.08579254 0.020668067 0.074117914 -0.044374917
0.09307461 -0.034552775 0.011136467 0.058363274 0.021634953 -0.011223485 0.040750112 0.16202192
0.054184332 0.21695705 0.117477186 0.09815094 0.27269804 0.11956426 0.044977274 0.0004283791
-0.03388792 -0.022332318 -0.011625854 0.014371746 -0.0075275647 -0.004398341 0.05269099 0.0016814066
0.09617788 -0.04679824 0.039560664 0.006767564 -0.121872015 -0.009153142 0.041084487 -0.22657438
-0.049233075 -0.14987645 -0.12339208 -0.08647344 -0.05065117 -0.15683697 -0.14809401 -0.023143766
-0.112700246 -0.020725967 0.054841638 -0.029543223 0.00462529 0.020462913 -0.053103227 -0.012791512
0.06567316 -0.028417928 0.0630691 0.06194175 0.0356679 0.01882847 -0.058009636 0.022935752
0.16413759 0.1258191 0.0891109 0.00676879 -0.07086803 0.018210806 -0.0083850045 -0.021291208
0.06317437 0.01897886 -0.008217739 0.09742019 0.0115767475 -0.0028720654 -0.024277916 -0.010218826
00000000: e09f 0bbd 3a57 263d 576c 49bd ec74 033c
00000010: c3ec 823c 8529 20bc 0f16 2d3d a75a ec3c
00000020: 9454 d2bc 5d98 c9bc 1c11 c03c 8250 7d3c
00000030: 640a 353d 6cc4 523d 9196 613d ae5b 223c
00000040: 02f9 8e3c c5c0 e83c 3c06 4d3c f52c a23c
00000050: 41e5 3bba 0047 3a3c c52c 47bc 64ea bebb
00000060: 94d7 ddbc c14a aabc 6658 9a3c c3cb edbc
00000070: ff0f 4abd 37a0 11bd edcc 53bd c73a f8bc
00000080: 462e 333d c5a2 ed3c 2271 d9bb 5f7c c63a
00000090: 7111 babd 3e70 153c 5110 f93b 55aa 803d
000000a0: 37fc 3d3c 8989 2a3c 1fd7 513d f277 023d
000000b0: 7584 643d 70b1 96bd acbe ba3c ea0a 4ebc
000000c0: 299c bdbd fe10 9d3c 5eae b83c ebff de3c
000000d0: a92d d63c de29 dc3c b24b e7bb c389 b93c
000000e0: 5e73 973b 77b8 16bd d1ba bebc 57de 313c
000000f0: bec5 013d 0097 7a3d 84ff 233d 3265 c3bd
00000100: 0590 353c cf9d 0abd 473e c93c f761 a73d
00000110: 896b 9c3c 5b19 ecbb a64d d83d 2769 b3bd
00000120: c8a2 143d edb7 9abd 166e a63c 5664 d53c
00000130: 5e27 013d c4a2 9f3d a79f 4b3b 177d 863d
00000140: 54ef b13c 6074 0abd 65bb 8cba 785d 2c3b
00000150: 1b30 af3c f8ae bd3b 25ca f0bb 30d5 b8bc
00000160: ce60 773d 70ff b23b 43bc ec3c b5c7 e2bc
00000170: 3ff7 2cbb 3d34 fd3b c8bf babc ed8b a03c
00000180: 01c5 60bd a172 5cbd 27c5 623d 9add 6bbb
00000190: 27f0 d93c 82e2 be3b 0b1a e93c 3395 9b3d
000001a0: 1992 803d 4c13 debb 7975 25bd b5be 0a3d
000001b0: 46db 86bb 54f1 98bd bcb2 11bc ff4e 003e
000001c0: 0cc4 933c e883 e33d 0ebd 6bbd 92d7 1d3b
000001d0: 836c de3d 9f39 333d b1aa 343c aa07 2d3d
000001e0: 3fd9 833d 39c6 4abc 3a36 0d3c 17c3 523d
000001f0: 2df1 fbbb c380 343d 7af4 56be ac6c 04be
00000200: 62e1 12bd 27bb 05be dda8 e0bd 5e8a d8bd
00000210: 3410 f7bd cdbf 26bd 4563 74bd c0a1 3c3d
00000220: e395 883c 7ede a0bd 3986 0a3b 868d a83d
00000230: 439d b9bd 6403 993d b988 6a3d acbd d0b9
00000240: a07e 90bd 9558 c9bd 66f7 6dbd c280 243d
00000250: 3e9d 14bc e388 053d add2 d6bd ced6 b9bc
00000260: d2b4 833b c637 6bbb 0ea0 443d 305a 0fbd
00000270: 803b 623d f909 df3c 4401 b03c 0767 02bd
00000280: bd43 9abb 4d33 7a3d 9a49 f1bc b505 f03c
00000290: b472 b9bb b46d c93c 69ac 1f3d 8ab6 46bd
000002a0: 33b6 e93c 3355 1dbd 043f 21be 4996 543b
000002b0: be4b b6bb e7bb e53c 5b68 b03a 816e 233c
000002c0: 17f0 f03c cb1b f5bb de51 b43b af8d 473d
000002d0: 00b4 afbd 1450 a93c 22cb 973d 79c2 35bd
000002e0: e79d be3d 3687 0dbd ba75 363c 540e 6f3d
000002f0: c93b b13c b5e2 37bc 97e9 263d 13e9 253e
00000300: 64f0 5d3d fd29 5e3e e197 f03d 5c03 c93d
00000310: 149f 8b3e 1bde f43d 173a 383d 1298 e039
00000320: 0fce 0abd 44f2 b6bc 5e7a 3ebc 7977 6b3c
00000330: caa9 f6bb f51f 90bb 82d2 573d a562 dc3a
00000340: e9f8 c43d 83af 3fbd 5d0a 223d 71c2 dd3b
00000350: 0998 f9bd 0ff7 15bc 3548 283d 1d03 68be
00000360: 9fa8 49bd 3679 19be fdb4 fcbd fd18 b1bd
00000370: 9a77 4fbd df99 20be f5a5 17be ff97 bdbc
00000380: 63cf e6bd 81c9 a9bc a0a1 603d a104 f2bc
00000390: bf8f 973b d7a1 a73c c582 59bd 7d93 51bc
000003a0: a67f 863d b7cc e8bc 5f2a 813d a2b6 7d3d
000003b0: 8118 123d 2a3e 9a3c 839b 6dbd c2e3 bb3c
000003c0: af13 283e b9d6 003e c77f b63d bacc dd3b
000003d0: 4223 91bd d42e 953c 4261 09bc e66a aebc
000003e0: 9061 813d 8e79 9b3c b2a3 06bc 3d84 c73d
000003f0: 66ac 3d3c 4339 3cbb 7be2 c6bc dd6c 27bc

layers.4.bias f4 [32]
-0.20006329 0.08153732 -0.20421101 -0.034347232 -0.17789286 -0.15622891 -0.26226476 -0.196829
0.18084182 -0.21197547 0.18454103 0.22885728 0.09918343 -0.014552851 -0.07373735 -0.10383635
0.07365759 0.1932193 -0.12605424 -0.0032215118 0.23849638 -0.24661662 -0.033611756 0.18971042
-0.21454982 0.09128001 0.10203356 0.051001817 0.18930581 -3.0615558e-06 0.10516046 0.11661591
00000000: 64dd 4cbe 0afd a63d b11c 51be afaf 0cbd
00000010: 8c29 36be 79fa 1fbe 9147 86be 8b8d 49be
00000020: 992e 393e 1910 59be 53f8 3c3e 9059 6a3e
00000030: af20 cb3d 156f 6ebc 9c03 97bd 27a8 d4bd
00000040: cad9 963d 48db 453e 5d14 01be 0020 53bb
00000050: 6538 743e 1189 7cbe 7bac 09bd 7343 423e
00000060: f3b2 5bbe 04f1 ba3d f9f6 d03d 48e7 503d
00000070: 62d9 413e 2175 4db6 5e5e d73d 52d4 ee3d

layers.8.weight f4 [32, 32, 3, 3]
-0.059468694 -0.08958372 -0.089574695 0.010928193 0.00032785235 -0.01584222 0.011267686 0.00048008392
-0.01298566 -0.057031456 -0.082740106 -0.05370808 -0.09435705 -0.10806868 -0.11718783 -0.03871449
-0.002984668 -0.0038682045 -0.08635461 -0.04557928 -0.044777732 -0.015941134 0.019774899 -0.014516614
-0.03511752 0.003856634 -0.022212682 5.4999397e-05 6.5830034e-05 4.283312e-05 2.131382e-05 0.0029964251
-6.766896e-05 -0.00018825138 -0.00042912707 -0.00011005989 -0.03733098 -0.095304094 -0.037018746 0.080611415
-0.008366248 -0.014155414 -0.007552752 -0.018210787 -0.031171288 -0.04688988 -0.046927515 -0.037834097
0.018554984 0.02173871 -0.05631895 -0.08710714 0.06750879 0.053273372 -0.03739531 -0.001722364
0.039860196 -0.080225036 0.017043535 -0.11389682 -0.047707453 -0.002330051 -0.056272294 -0.076509506
-0.069479845 -0.04398376 -0.045519542 0.07946355 0.060846932 0.012294532 0.019551849 -0.033671483
-0.056004174 0.03893501 0.0020249072 0.082397655 -0.043710873 0.097473174 0.023279466 -0.036384553
-0.025864823 0.041887872 0.076096915 5.228881e-05 0.009896748 0.020403145 -0.034663778 -0.084257655
0.06821807 0.022743823 -0.051141314 0.043581635 -0.0076119597 -0.02632683 0.046789125 0.0048107603
0.05644284 0.009831438 0.087517984 -0.041450635 -0.10080489 -0.063182175 -0.08732119 -0.058040816
-0.03197952 -0.041080795 -0.05112787 -0.012993086 -0.04011066 -0.05097019 -0.033616357 0.0024222757
0.062020317 0.05333496 -0.03181748 0.059497397 0.025678117 -0.10378149 -0.09482259 -0.023580208
-0.11099365 0.040345326 0.085166514 -0.0452011 -0.028867085 0.0439414 -0.06404703 -0.023985483
-0.039190017 0.03894524 0.028844373 -0.0116935475 -0.10920856 0.059154037 -0.09468601 -0.02698439
-0.048340105 0.013590189 -0.022854289 -0.019986562 -0.009698207 -0.016126743 -0.013489204 -0.03837585
-0.060033344 -0.13073409 -0.029164555 0.0014810746 0.0054663476 0.035619967 -0.034288403 -0.010478161
-0.03556865 -0.082386 -0.07163134 -0.052219614 -0.08491509 -0.1255679 -0.07360794 -0.052042685
-0.03615134 -0.008683113 -0.01921386 -0.008971842 -0.025442662 0.0756673 -0.08507929 -0.063107796
-0.025654508 -0.038306907 0.05699027 4.57077e-40 -2.0365539e-12 -3.4978945e-12 -6.989728e-10 -5.136537e-06
-3.7084797e-06 -1.611765e-09 -5.4399185e-05 -2.7521453e-05 0.0005199903 0.082683034 0.034014575 0.066011675
0.12787521 0.061520718 0.020737322 0.020251608 0.06299616 -0.09339137 -0.0045516677 -0.05549227
0.051623568 0.0777659 0.072485566 -0.0557375 -0.062092956 -0.05280704 0.035842557 0.034168467
-0.02565245 -0.03420474 -0.011410564 0.015987119 0.020665878 -0.037165686 -0.040078234 -0.07712577
-0.07770471 -0.019394739 -0.06249122 -0.051900048 -0.05366763 0.012780529 -0.032261197 -0.008735924
-0.026586872 0.07175735 -0.042175326 -0.061169874 -0.012837678 0.05625836 0.005794801 0.010018379
-0.049513105 0.023239262 -0.029286833 0.027438302 0.02107904 0.054910365 0.036871184 -0.13433516
0.02533288 -0.007898329 -0.06658277 0.043461308 -0.009764292 -0.069303714 0.014023648 -0.036896918
0.014094879 0.053452183 0.018654434 0.025795363 -0.005067291 -0.04495033 0.035406716 0.052993737
-0.01160733 0.054243915 -0.0061596627 0.016795784 -0.033760555 -0.087630376 -0.018971428 -0.10344615
00000000: 7295 73bd ab77 b7bd f072 b7bd 2a0c 333c
00000010: 99e3 ab39 8bc7 81bc 1a9c 383c c6b3 fb39
00000020: cec1 54bc d199 69bd a573 a9bd 01fd 5bbd
00000030: 453e c1bd 1d53 ddbd 2c00 f0bd 1693 1ebd
00000040: 6b9a 43bb b481 7dbb b0da b0bd 57b1 3abd
00000050: db68 37bd fb96 82bc f8fe a13c 18d7 6dbc
00000060: 63d7 0fbd 95bf 7c3b 5ff7 b5bc 27af 6638
00000070: 3b0e 8a38 b6a7 3338 14cb b237 ac5f 443b
00000080: 7fe9 8db8 5865 45b9 76fc e0b9 f4cf e6b8
00000090: 5fe8 18bd cb2e c3bd f8a0 17bd 9917 a53d
000000a0: 9612 09bc 1cec 67bc 137d f7bb ca2e 95bc
000000b0: ee5a ffbc 9a0f 40bd 1137 40bd edf7 1abd
000000c0: 9f00 983c 6115 b23c b3ae 66bd 3a65 b2bd
000000d0: 0c42 8a3d 2e35 5a3d d32b 19bd f2c0 e1ba
000000e0: 7244 233d 064d a4bd e29e 8b3c bc42 e9bd
000000f0: e468 43bd c5b3 18bb c77d 66bd 04b1 9cbd
00000100: 734b 8ebd 5128 34bd b372 3abd c9bd a23d
00000110: a23a 793d 016f 493c 332b a03c 1ceb 09bd
00000120: a264 65bd 517a 1f3d 4eb4 043b 1ac0 a83d
00000130: 2c0a 33bd 04a0 c73d 94b4 be3c f807 15bd
00000140: 77e2 d3bc 9e92 2b3d b3d8 9b3d af50 5b38
00000150: f825 223c 7f24 a73c 9bfb 0dbd 478f acbd
00000160: eab5 8b3d 4151 ba3c 8e79 51bd a882 323d
00000170: bf6d f9bb 5dab d7bc f4a5 3f3d 95a3 9d3b
00000180: 9b30 673d 0a14 213c a13c b33d 24c8 29bd
00000190: cb72 cebd a865 81bd 74d5 b2bd 35bc 6dbd
000001a0: f5fc 02bd 5644 28bd 756b 51bd f4e0 54bc
000001b0: 134b 24bd 1ec6 50bd 4eb1 09bd 0bbf 1e3b
000001c0: 0409 7e3d c275 5a3d 0c53 02bd 8bb3 733d
000001d0: ea5a d23c 648b d4bd 5932 c2bd 482b c1bc
000001e0: a450 e3bd 2441 253d c86b ae3d ca24 39bd
000001f0: aa7a ecbc e6fb 333d 172b 83bd 347d c4bc
00000200: b685 20bd 0b85 1f3d 094b ec3c 4b96 3fbc
00000210: bda8 dfbd 814b 723d bdea c1bd 5e0e ddbc
00000220: 4600 46bd 62a9 5e3c eb38 bbbc dcba a3bc
00000230: 3ae5 1ebc 3b1c 84bc d301 5dbc ff2f 1dbd
00000240: 86e5 75bd 28df 05be 81ea eebc 9e20 c23a
00000250: 0c1f b33b 3ee6 113d ff71 0cbd 98ac 2bbc
00000260: 6fb0 11bd feb9 a8bd 74b3 92bd 3ce4 55bd
00000270: f6e7 adbd df94 00be c2bf 96bd b62a 55bd
00000280: 6d13 14bd 9e43 0ebc 6366 9dbc a2fe 12bc
00000290: 216d d0bc 75f7 9a3d 0d3e aebd a93e 81bd
000002a0: 6729 d2bc b4e7 1cbd a16e 693d 25fa 0400
000002b0: 4b4f 0fac 7724 76ac d721 40b0 845a acb6
000002c0: 32df 78b6 f184 ddb0 ae2a 64b8 dfdd e6b7
000002d0: f54f 083a b955 a93d de52 0b3d 2131 873d
000002e0: b8f1 023e 26fd 7b3d 51e1 a93c b3e6 a53c
000002f0: 2104 813d f943 bfbd 2826 95bb dd4b 63bd
00000300: 3c73 533d ba43 9f3d 5073 943d 014d 64bd
00000310: 2f55 7ebd 324c 58bd a5cf 123d 3cf4 0b3d
00000320: 1625 d2bc 451a 0cbd 60f3 3abc 6bf7 823c
00000330: 7d4b a93c 0c3b 18bd 1329 24bd 1ef4 9dbd
00000340: a623 9fbd b7e1 9ebc cbf6 7fbd 2595 54bd
00000350: 97d2 5bbd 6d65 513c 5124 04bd 1f21 0fbc
00000360: b6cc d9bc 84f5 923d 09c0 2cbd 438d 7abd
00000370: 2055 52bc 2b6f 663d 50e2 bd3b 2124 243c
00000380: 41ce 4abd 4460 be3c f1ea efbc 4ac6 e03c
00000390: f3ad ac3c b1e9 603d 3d06 173d 288f 09be
000003a0: e686 cf3c fe67 01bc 8c5c 88bd 7c04 323d
000003b0: 69fa 1fbc 1bef 8dbd 71c3 653c 3921 17bd
000003c0: 35ee 663c adf0 5a3d 2fd1 983c cc50 d33c
000003d0: 850b a6bb d61d 38bd a206 113d f60f 593d
000003e0: ac2c 3ebc de2e 5e3d ffd6 c9bb 5097 893c
000003f0: 8248 0abd 8e77 b3bd f869 9bbc 93db d3bd

layers.8.bias f4 [32]
0.0146883745 -0.017548995 0.0005145553 -0.003960551 0.13655399 -0.029980073 0.16450155 -0.010524144
-0.030886268 -0.06733342 -0.010510754 -0.0682557 -0.028948965 0.122958474 -0.0031532769 -0.032829925
-0.04140598 0.0016618874 0.16100037 0.114084154 -0.058715906 -0.0090058865 0.14254127 0.08613434
0.12795489 0.0027497597 -0.13192219 -0.025381034 -0.00051182986 0.10385521 -0.0065962113 0.1328687
00000000: 82a7 703c e9c2 8fbc 39e3 063a 83c7 81bb
00000010: cfd4 0b3e c598 f5bc 1873 283e 766d 2cbc
00000020: 3305 fdbc 1be6 89bd 4c35 2cbc a5c9 8bbd
00000030: 6126 edbc a7d1 fb3d 35a7 4ebb ac78 06bd
00000040: 5199 29bd b0d3 d93a 48dd 243e f4a4 e93d
00000050: 1780 70bd 6d8d 13bc 57f6 113e 3367 b03d
00000060: 9b06 033e 5035 343b 9c16 07be e3eb cfbc
00000070: 522c 06ba 0ab2 d43d 0825 d8bb bc0e 083e

layers.13.weight f4 [256, 288]
0.008789824 0.0087241335 -0.00022532014 -0.033550624 0.010860449 -0.017450942 0.0062713614 -0.018793736
0.02446226 0.023567114 -0.0052154 -0.009651019 0.040101044 -0.006866209 0.011531569 -0.002608376
0.051946707 0.02592225 0.00949038 0.023796758 0.010774636 -0.005833128 0.033412684 0.047006693
0.010261895 0.026736785 0.030555692 0.021904225 0.017596224 0.017560909 0.012054117 0.019446237
-0.008748968 0.03661367 0.05832556 0.028877243 -0.053635832 -0.06680105 -0.036753282 -0.015797243
-0.046432227 -0.039954204 -0.021804431 0.015375509 -0.05376688 -0.002495052 -0.009206994 -0.006324324
0.026556496 -0.009887218 0.0048668454 -0.05335886 -0.009452076 0.012656644 -0.0948515 -0.02796744
-0.07544307 -0.0010642059 -0.016482767 -0.024085267 -0.033991184 -0.035980795 -0.023388404 0.022912852
0.024083178 0.032961708 -0.036930256 0.0029186262 0.06131227 0.018150307 0.036771663 0.0084133865
0.03605791 0.011124859 0.013240242 -0.0032609503 0.00809349 0.040053852 -0.003063909 3.7993483e-05
0.05476858 0.05362286 -0.006717513 0.0350278 0.037410937 0.028247913 0.025491895 0.05093643
0.0071379356 0.024239456 0.042023607 -0.010303731 0.03273215 0.046959344 -0.0013107817 0.016000858
0.046291847 0.011595256 0.034115974 0.015496265 0.0022889439 0.026716335 0.04402984 0.07658861
-2.4161267e-05 0.06683957 -0.007905608 0.020571215 -0.043207098 0.011510887 0.053953175 -0.029552648
0.0039304253 0.027437944 0.034334384 0.02128097 0.022209167 -0.06263278 -0.036887188 -0.06751385
0.032608483 -0.04334335 -0.04792889 -0.042675983 -0.008225677 -0.10438733 0.021193204 -0.020692833
0.01840575 -0.027812632 -0.044691693 0.027268331 -6.0142822e-05 -0.0006605946 0.011317904 0.008745752
-0.020260984 0.021807047 -0.023887798 -0.013006633 -0.0016914951 0.0044731135 0.032204784 0.0003696376
-0.0051015536 0.012900737 -0.04040625 -0.014619833 -0.0007831949 -0.0022784024 0.048339777 0.033100914
0.013517058 0.03862912 0.003192756 -0.005579885 0.03410488 0.013926901 -0.009163948 0.058140665
0.028792424 0.017117338 -0.057839718 -0.0037575653 -0.03120715 -0.012193064 -0.009597802 -0.03843236
-0.029876193 -0.015626874 0.004301406 -0.082559906 -0.016718024 -0.039221525 0.017159296 -0.0037523326
-0.039909665 -0.028691038 -0.04053976 -0.039685387 0.035244346 0.0046243584 0.016674554 0.002072085
-0.0139002865 0.03732008 0.030001268 0.009452065 -0.019215623 -0.009003801 0.03490898 0.011413401
0.0010919487 -0.025189256 0.057533562 -0.0017289955 0.036552586 0.019390414 -0.08523645 -0.09024172
-0.07123223 -0.009964814 -0.010477635 -0.030547699 0.0023748318 -0.028273556 -0.024644552 -0.049628925
-0.017290957 -0.056486372 -0.01761753 -0.040968698 -0.08105513 -0.056902684 -0.0150349075 -0.08357989
-0.027018262 -0.017689962 -0.035699826 0.018315833 -0.007324218 -0.06658326 -0.05697912 0.0041432814
-0.06657701 0.014900919 0.005168951 0.0024481663 -0.00989619 0.034652453 0.022705184 -0.020686818
0.033652816 0.01297544 0.01066173 0.051268157 0.058820553 0.029960645 0.047145084 0.05625191
0.0014007719 0.06512302 0.015346641 -0.026142387 0.021377329 0.008497363 -0.021366475 0.016298888
-0.0032543098 0.012172542 0.0070395647 0.009642677 0.0099354945 -0.015022354 -0.02273371 -0.018132826
00000000: 3203 103c abef 0e3c ea43 6cb9 616c 09bd
00000010: 06f0 313c 47f5 8ebc fe7f cd3b 52f5 99bc
00000020: 1465 c83c d20f c13c f2e5 aabb 4f1f 1ebc
00000030: fe40 243d f0fd e0bb e8ee 3c3c 4af1 2abb
00000040: 12c6 543d e65a d43c 8a7d 1b3c 6bf1 c23c
00000050: 1988 303c d323 bfbb bddb 083d 178a 403d
00000060: 8221 283c 1a07 db3c ee4f fa3c 7d70 b33c
00000070: f525 903c e5db 8f3c a27e 453c b74d 9f3c
00000080: d557 0fbc 37f8 153d c8e6 6e3d f88f ec3c
00000090: 3fb1 5bbd fdce 88bd 9c8a 16bd 3869 81bc
000000a0: b82f 3ebd 05a7 23bd 359f b2bc 8fe9 7b3c
000000b0: a93a 5cbd 0784 23bb efd8 16bc 463c cfbb
000000c0: 028d d93c fffd 21bc 0f7a 9f3b d28e 5abd
000000d0: e1dc 1abc d05d 4f3c 8141 c2bd f91b e5bc
000000e0: e581 9abd d37c 8bba de06 87bc 774e c5bc
000000f0: 573a 0bbd 9960 13bd 0a99 bfbc bcb3 bb3c
00000100: 164a c53c db02 073d 2e44 17bd 6c46 3f3b
00000110: 9322 7b3d f4af 943c e29d 163d 4dd8 093c
00000120: 76b1 133d 0a45 363c 9aed 583c abb5 55bb
00000130: 8f9a 043c 820f 243d ddcb 48bb 315b 1f38
00000140: 0555 603d a5a3 5b3d 951e dcbb 4f79 0f3d
00000150: 363c 193d 2b68 e73c 61d4 d03c b8a2 503d
00000160: 58e5 e93b d391 c63c f220 2c3d fbd0 28bc
00000170: 2612 063d 7158 403d 89ce abba 3b14 833c
00000180: 859c 3d3d 07fa 3d3c 31bd 0b3d 0ce4 7d3c
00000190: 1b02 163b 37dc da3c a258 343d 7dda 9c3d
000001a0: edad cab7 2fe3 883d 8686 01bc f784 a83c
000001b0: edf9 30bd 2998 3c3c 01fe 5c3d 6518 f2bc
000001c0: ccca 803b 8ac5 e03c 36a2 0c3d 6e55 ae3c
000001d0: 00f0 b53c 9d45 80bd 0517 17bd b444 8abd
000001e0: 7990 053d cc88 31bd 1551 44bd 03cd 2ebd
000001f0: fdc4 06bc 06c9 d5bd 5f9d ad3c 0484 a9bc
00000200: a8c7 963c 51d7 e3bc a30e 37bd d661 df3c
00000210: dd41 7cb8 c12b 2dba bb6e 393c 584a 0f3c
00000220: 5dfa a5bc b1a4 b23c 58b0 c3bc c619 55bc
00000230: 28b5 ddba 3293 923b 2ae9 033d ebcb c139
00000240: ef2a a7bb 9d5d 533c 0681 25bd 0688 6fbc
00000250: 524f 4dba 4051 15bb eeff 453d d394 073d
00000260: a776 5d3c 9139 1e3d 8f3d 513b 78d7 b6bb
00000270: 8fb1 0b3d a82d 643c 6224 16bc e824 6e3d
00000280: 17de eb3c a939 8c3c 57e9 6cbd 7c41 76bb
00000290: 23a6 ffbc 6bc5 47bc 1940 1dbc 406b 1dbd
000002a0: ebbe f4bc ee03 80bc cff2 8c3b 2b15 a9bd
000002b0: 3df4 88bc c0a6 20bd a791 8c3c b2e9 75bb
000002c0: 5178 23bd 7809 ebbc 050d 26bd 258d 22bd
000002d0: 605c 103d ee87 973b 1399 883c d1cb 073b
000002e0: 07be 63bc f1dc 183d 38c5 f53c d6dc 1a3c
000002f0: 156a 9dbc ae84 13bc b8fc 0e3d 46ff 3a3c
00000300: b81f 8f3a b359 cebc 50a8 6b3d 769f e2ba
00000310: 2ab8 153d a5d8 9e3c 7390 aebd a7d0 b8bd
00000320: 34e2 91bd 7643 23bc 63aa 2bbc 2b3f fabc
00000330: 11a3 1b3b f29d e7bc 5fe3 c9bc b347 4bbd
00000340: c4a5 8dbc 415e 67bd a352 90bc cbce 27bd
00000350: 3b00 a6bd ca12 69bd f954 76bc ef2b abbd
00000360: 6755 ddbc 8aea 90bc fb39 12bd 160b 963c
00000370: feff efbb ce5c 88bd f062 69bd 5dc4 873b
00000380: 8759 88bd fc22 743c 4e60 a93b 6a71 203b
00000390: a123 22bc bbef 0d3d 3900 ba3c 6777 a9bc
000003a0: 89d7 093d f196 543c 89ae 2e3c 8ffe 513d
000003b0: d2ed 703d 0770 f53c 341b 413d 6768 663d
000003c0: 1b9a b73a 385f 853d 7a70 7b3c 8f28 d6bc
000003d0: 821f af3c 8638 0b3c bf08 afbc 3f85 853c
000003e0: 4246 55bb 576f 473c 26ac e63b 52fc 1d3c
000003f0: 7cc8 223c 5220 76bc 0c3c babc 4b8b 94bc

layers.13.bias f4 [256]
0.035060976 0.06284537 0.09401217 0.054618504 0.08753272 0.13147998 -4.707307e-05 0.0077641127
0.12504593 0.035718966 0.06324727 0.033865824 0.044476964 0.052771047 -1.0769865e-17 0.05710094
4.9556e-41 0.06315471 0.06450441 0.05247812 4.9506e-41 0.055807922 0.010418536 0.0034968934
0.11804989 0.05194138 0.06297708 0.037001066 0.08182969 -0.007558072 0.013300697 0.07908914
0.07853553 0.06438611 -4.9453e-41 0.07913393 0.064499885 -1.4137428e-25 -0.016786579 0.11662619
-4.9306e-41 0.058772877 0.08743333 0.045561258 0.10544935 0.0649947 -2.300585e-15 0.09883911
0.06029268 0.053887494 -7.617866e-16 0.09907033 0.043661695 0.094105184 0.06688064 0.09394152
0.062645964 -3.7763496e-18 0.003522889 0.0929 0.04444859 0.06789031 0.045042444 4.908e-41
0.08816611 -1.7868722e-10 0.04104466 0.100401804 0.07673255 0.057835814 0.11540262 0.10341294
0.06132582 0.07961181 0.12679666 0.025869848 0.09011927 0.05146991 0.08364709 0.015226559
0.054272607 0.0693099 0.042448834 0.0372866 0.07251806 0.08145109 0.07802459 -4.9506e-41
0.008842771 0.06630688 0.016754232 0.09273858 0.069474496 0.13748883 0.021920495 4.9258e-41
0.07022195 0.08408034 0.0918613 0.05796793 0.0512013 0.034569703 0.05148121 0.032191545
0.0862282 0.116634995 0.016470077 0.058889262 0.09086008 0.11747145 0.041192327 -2.3726658e-25
-0.0009326763 0.06959223 0.11398533 0.111100465 0.04512265 0.10590774 0.06446949 0.11944762
-4.9239e-41 0.070047885 0.08654153 -4.949e-41 0.07914157 0.07022474 -1.660436e-26 0.09504746
0.056626957 0.050799932 0.04792617 0.0904732 -4.9179e-41 -8.024609e-16 0.100820534 0.11275568
0.06035805 -0.00021771804 -0.0070793442 0.036340922 0.08185957 0.077699356 0.084018804 4.9448e-41
0.061028663 0.058486365 0.08255963 4.9542e-41 0.088583045 -0.0015697959 0.07803656 0.08710069
-4.9542e-41 0.0898947 0.105074935 0.085224785 0.046417896 0.0536555 0.08005398 0.050961554
0.11691044 0.042890124 0.04859086 0.0444634 0.07875263 -4.9438e-41 0.005199793 0.13590775
0.09020758 0.0065119215 0.104091935 0.09150445 0.03670994 0.105097905 0.077194214 0.07765028
0.071116015 0.06212676 0.041976213 0.07883962 4.9243e-41 0.045769833 4.9244e-41 0.082612514
-3.8819e-41 0.076734 0.065499 0.034230854 0.083682805 0.08758753 0.08420849 0.07977097
0.09966341 0.052589696 0.07548859 -1.9645198e-28 0.08935993 0.095953576 0.0801323 0.123206034
0.08836721 0.032316133 0.06248808 0.06510257 0.096826896 0.06793455 0.08384513 -4.9456e-41
0.078229316 0.09285534 0.09693357 0.08544389 0.002024197 0.052099854 0.034812313 0.06807603
0.026925215 -1.2689102e-29 0.057543915 0.07230048 0.08256659 0.06004786 0.07122221 0.051193606
-4.7328623e-27 0.097051024 0.114503555 0.023679743 0.03681154 0.08215374 0.082307495 0.04437048
-6.616083e-27 0.08396873 0.046566706 0.08194817 0.0524869 4.9256e-41 0.082538225 0.034318205
0.027002124 0.034151804 0.081506826 0.07067973 0.04010114 0.04089437 0.038118113 0.08602085
0.08237005 0.035088472 0.06973034 -4.9219e-41 0.02839805 0.057349954 -1.8776651e-08 0.079384
00000000: 199c 0f3d 13b5 803d 7489 c03d a7b7 5f3d
00000010: 5b44 b33d b0a2 063e 5370 45b8 196a fe3b
00000020: 0a0c 003e 0d4e 123d c987 813d e4b6 0a3d
00000030: 7a2d 363d 7426 583d 40ab 46a3 ade2 693d
00000040: 248a 0000 4257 813d e31a 843d 4cf3 563d
00000050: 018a 0000 d996 643d 82b2 2a3c 232c 653b
00000060: 24c4 f13d 7cc0 543d 21fa 803d 6e8e 173d
00000070: 5396 a73d b4a9 f7bb 2beb 593c 7df9 a13d
00000080: 3cd7 a03d dddc 833d db89 0080 f810 a23d
00000090: 8418 843d 4c03 2f96 0284 89bc b6d9 ee3d
000000a0: 7289 0080 d4bb 703d 3f10 b33d 719e 3a3d
000000b0: d4f5 d73d f11b 853d 4dc6 25a7 296c ca3d
000000c0: 75f5 763d 22b9 5c3d ee91 5ba6 63e5 ca3d
000000d0: 9bd6 323d 38ba c03d b8f8 883d 6964 c03d
000000e0: 874c 803d 9d52 8ba2 45e0 663b 5b42 be3d
000000f0: ba0f 363d 130a 8b3d 6d7e 383d d188 0000
00000100: 6f90 b43d fb77 44af 721e 283d 769f cd3d
00000110: f525 9d3d 3fe5 6c3d 3558 ec3d 2aca d33d
00000120: c830 7b3d 840b a33d fcd6 013e 01ed d33c
00000130: 7490 b83d 1dd2 523d 2a4f ab3d d178 793c
00000140: f44c 5e3d 59f2 8d3d d4de 2d3d d5b9 183d
00000150: 5984 943d d4cf a63d 5bcb 9f3d 018a 0080
00000160: 45e1 103c e7cb 873d 2c40 893c baed bd3d
00000170: a548 8e3d dfc9 0c3e 9c92 b33c 5089 0000
00000180: 87d0 8f3d 5032 ac3d c721 bc3d c86f 6d3d
00000190: 74b8 513d f698 0d3d f6dd 523d 48db 033d
000001a0: 6998 b03d 54de ee3d 41ec 863c de35 713d
000001b0: da14 ba3d df94 f03d 49b9 283d 64dc 9296
000001c0: d97e 74ba 5f86 8e3d 2471 e93d a488 e33d
000001d0: 87d2 383d 28e6 d83d 9408 843d f4a0 f43d
000001e0: 4289 0080 4475 8f3d b03c b13d f589 0080
000001f0: fa14 a23d fdd1 8f3d 0e71 a494 3ea8 c23d
00000200: abf1 673d 9713 503d 3b4e 443d 034a b93d
00000210: 1789 0080 2a4b 67a6 ff7a ce3d 73ec e63d
00000220: 013a 773d 3e4b 64b9 d8f9 e7bb 38da 143d
00000230: fea5 a73d d720 9f3d 0d12 ac3d d789 0000
00000240: 31f9 793d 668f 6f3d 0615 a93d 1a8a 0000
00000250: 076b b53d 9cc1 cdba a2d1 9f3d d961 b23d
00000260: 1a8a 0080 b61a b83d 8731 d73d 558a ae3d
00000270: b120 3e3d dfc5 5b3d 57f3 a33d 10bd 503d
00000280: be6e ef3d 8ead 2f3d 3607 473d 411f 363d
00000290: 0f49 a13d d089 0080 0663 aa3b 672b 0b3e
000002a0: c0be b83d f561 d53b 272e d53d af66 bb3d
000002b0: 295d 163d 923d d73d 0018 9e3d 1c07 9f3d
000002c0: 46a5 913d a178 7e3d 40ef 2b3d ab76 a13d
000002d0: 4589 0000 2679 3b3d 4689 0000 c030 a93d
000002e0: 366c 0080 b726 9d3d 5724 863d a735 0c3d
000002f0: e461 ab3d 1761 b33d 8075 ac3d f65e a33d
00000300: 541c cc3d 4b68 573d c399 9a3d 5008 7991
00000310: 5702 b73d 4f83 c43d 671c a43d 7253 fc3d
00000320: def9 b43d ec5d 043d 80f3 7f3d 7f54 853d
00000330: 2e4d c63d 4521 8b3d ffb6 ab3d dd89 0080
00000340: b136 a03d f12a be3d 1c85 c63d 35fd ae3d
00000350: 64a8 043b a866 553d 5b97 0e3d 726b 8b3d
00000360: 4592 dc3c cbae 808f 2bb3 6b3d 4612 943d
00000370: ac18 a93d bff4 753d f3dc 913d 63b0 513d
00000380: ed7c bb93 b0c2 c63d d780 ea3d 05fc c13c
00000390: b3c7 163d 3840 a83d d590 a83d d2bd 353d
000003a0: 870b 0394 ccf7 ab3d bbbc 3e3d 71d4 a73d
000003b0: 81fc 563d 4e89 0000 cd09 a93d 3f91 0c3d
000003c0: 8f33 dd3c c3e2 0b3d 0ded a63d 89c0 903d
000003d0: 1841 243d db80 273d bd21 1c3d b32b b03d
000003e0: a1b1 a83d eeb8 0f3d c8ce 8e3d 3489 0080
000003f0: 07a3 e83c c9e7 6a3d 4b4a a1b2 1494 a23d

layers.16.weight f4 [2, 256]
0.088007346 0.043513704 0.032605335 -0.07181056 0.024719754 -0.102823935 0.0008905203 -0.06648198
-0.10469844 -0.008038854 -0.09279518 -0.03969451 0.10861395 0.104637 5.804956e-06 0.14476678
1.82924e-11 0.038346957 -0.0748947 0.018008262 -1.1141468e-08 0.016198894 0.06686848 -0.0243065
0.07322642 0.08893313 -0.021142626 -0.021817764 -0.060677603 -0.055400375 -0.0730686 -0.027975133
-0.058797017 0.02351261 4.627818e-36 0.143593 0.014695673 3.699269e-14 -0.114756435 -0.070198104
-2.1962665e-06 0.07882347 0.1844247 -0.084107555 0.04361988 -0.045531724 -5.0192004e-05 0.05322984
0.016486589 0.07351595 -2.0441615e-09 -0.0589525 -0.043317154 0.030127771 -0.014826734 -0.052407756
0.13289797 -1.3551774e-15 -0.037993334 0.06396269 -0.08292797 -0.05748761 -0.039826322 1.4017512e-08
0.03867425 1.3348867e-14 0.022077553 0.040245343 0.08873228 0.037753534 0.041219424 -0.03597367
-0.045086704 0.12943535 -0.06464742 0.06790728 -0.075677305 0.12002208 -0.03748616 0.07431255
0.04521414 -0.056204278 0.10821002 -0.07509206 -0.05935882 0.039508846 0.07065895 4.454211e-05
-0.09420162 -0.09591501 -0.0334794 -0.068065286 -0.019784361 -0.13271274 -0.10206957 1.3693229e-17
-0.030925011 -0.064541176 0.04201668 0.15400603 -0.06440927 0.13827614 -0.061703436 -0.09812036
-0.069615655 -0.08193326 -0.046028994 -0.09079233 0.022292484 0.042937633 0.10767168 -1.2577145e-06
0.00025697178 0.000611974 -0.08364202 0.016587257 -0.11633742 0.07837869 0.13095982 0.09264229
6.0662405e-06 0.02946264 0.085467055 1.0912483e-12 0.015415437 0.09473293 3.5090448e-08 0.0152856205
0.06073489 -0.0012413748 -0.05214216 -0.03289141 4.912e-41 1.77167e-11 0.041243277 -0.018195195
-0.009518834 -6.083113e-05 -0.052117277 -0.03993305 0.100162566 0.020113133 0.020840527 1.22022e-15
-0.07302452 -0.026184062 0.02104727 6.2734366e-11 -0.06380303 -0.0455179 0.035597105 0.05205219
-1.0322889e-05 0.031125084 0.056695055 -0.037566323 -0.033108767 -0.06136179 0.1496107 -0.042745735
-0.11930045 -0.025402177 0.08316607 0.112494044 0.011222202 8.506447e-06 -0.07323341 -0.11433849
-0.08403272 -0.023229675 -0.05406669 0.040340345 0.08996135 0.07998859 0.09133735 0.10064737
0.06457377 -0.005632319 -0.034960262 -0.051353585 6.9063162e-12 -0.0067472644 3.6146856e-05 0.12291118
-7.5857693e-06 0.010523292 0.053720813 -0.07839698 -0.07369879 -0.05265832 0.0972223 -0.079826884
0.032229222 -0.050622705 -0.02862515 5.285053e-06 0.099636994 -0.033603553 0.022566993 -0.10162607
-0.06615805 -0.06767442 0.026233261 -0.045574803 -0.0855351 0.048889916 -0.07205204 -7.703793e-10
0.014414426 0.007446756 0.04333446 0.055560675 -0.057952855 -0.07361638 0.10661855 0.078042805
-0.012386995 -5.9025635e-05 0.031434055 -0.08072829 0.05167971 -0.03451781 0.0044279746 -0.07164144
-2.033409e-07 0.03172456 -0.08839282 -0.015832754 0.05451289 0.10566616 0.10499719 0.04984293
0.00011375953 -0.06890732 0.08817867 -0.060818408 0.033363014 4.944e-41 -0.07335707 -0.07954564
0.11024612 -0.07090566 -0.0637403 0.083658345 -0.07553289 0.12783647 0.085177794 0.08744897
0.058477286 -0.070176646 -0.03564959 -0.0020119478 -0.042515982 -0.07419866 -0.0020589752 -0.048536338
00000000: 323d b43d 6d3b 323d 2c8d 053d 6a11 93bd
00000010: 1581 ca3c 5b95 d2bd ce71 693a b427 88bd
00000020: 236c d6bd 66b5 03bc 660b bebd b696 22bd
00000030: fe70 de3d ec4b d63d 31c8 c236 be3d 143e
00000040: d3e6 a02d b311 1d3d 6462 99bd 1086 933c
00000050: b268 3fb2 8bb3 843c 57f2 883d 6d1e c7bc
00000060: bcf7 953d 9322 b63d 4d33 adbc 2bbb b2bc
00000070: 1489 78bd 81eb 62bd fda4 95bd 1b2c e5bc
00000080: 24d5 70bd 849d c03c 7ad8 c404 0b0a 133e
00000090: 1fc6 703c ab99 2629 6c05 ebbd 06c4 8fbd
000000a0: 9263 13b6 336e a13d d4d9 3c3e 9540 acbd
000000b0: c2aa 323d 797f 3abd 4185 52b8 8807 5a3d
000000c0: e20e 873c 888f 963d 4579 0cb1 2d78 71bd
000000d0: 546d 31bd 84ce f63c d4eb 72bc 84a9 56bd
000000e0: 6816 083e 394d c3a6 e69e 1bbd dffe 823d
000000f0: 24d6 a9bd 2178 6bbd ed20 23bd abd1 7032
00000100: e468 1e3d c978 7028 fcdb b43c 4dd8 243d
00000110: 45b9 b53d 73a3 1a3d b3d5 283d 2159 13bd
00000120: d6ac 38bd b38a 043e de65 84bd f912 8b3d
00000130: b4fc 9abd 23ce f53d 168b 19bd 2e31 983d
00000140: 7632 393d 7536 66bd 379d dd3d dec9 99bd
00000150: 3c22 73bd 07d4 213d a4b5 903d bad2 3a38
00000160: c7ec c0bd 176f c4bd b221 09bd d065 8bbd
00000170: d012 a2bc d9e5 07be da09 d1bd 7298 7c23
00000180: 7356 fdbc 2a2e 84bd af19 2c3d c2b3 1d3e
00000190: 02e9 83bd 4398 0d3e bebc 7cbd 54f3 c8bd
000001a0: a792 8ebd a0cc a7bd e688 3cbd 54f1 b9bd
000001b0: ba9e b63c 5fdf 2f3d f882 dc3d bece a8b5
000001c0: 2bba 8639 e16c 203a 824c abbd 00e2 873c
000001d0: 5042 eebd 0285 a03d 551a 063e 3ebb bd3d
000001e0: 9c8c cb36 a25b f13c 5a09 af3d 5d94 992b
000001f0: 0791 7c3c 5703 c23d 5bb6 1633 8a70 7a3c
00000200: 26c5 783d a0b5 a2ba 0493 55bd 25b9 06bd
00000210: ed88 0000 76d6 9b2d b6ee 283d 170e 95bc
00000220: e2f4 1bbc ee24 7fb8 ed78 55bd d690 23bd
00000230: 0822 cd3d 4cc4 a43c c1b9 aa3c 2cda af26
00000240: e18d 95bd f57f d6bc 536b ac3c 4ff4 892e
00000250: 2aab 82bd fa70 3abd 45ce 113d ad34 553d
00000260: 7830 2db7 08fa fe3c 1339 683d 25df 19bd
00000270: 0f9d 07bd 8056 7bbd 8c33 193e 2716 2fbd
00000280: cb53 f4bd 3a18 d0bc f952 aa3d 4763 e63d
00000290: 54dd 373c e9b6 0e37 66fb 95bd 4c2a eabd
000002a0: 5919 acbd 294c bebc 0975 5dbd eb3b 253d
000002b0: a83d b83d 0fd1 a33d 140f bb3d 3520 ce3d
000002c0: 413f 843d 518f b8bb 7e32 0fbd 2358 52bd
000002d0: 91fe f22c 2818 ddbb 649c 1738 dbb8 fb3d
000002e0: 4389 feb6 e369 2c3c 5b0a 5c3d 998e a0bd
000002f0: 64ef 96bd 40b0 57bd 7c1c c73d 477c a3bd
00000300: ca02 043d c159 4fbd 4a7f eabc 4256 b136
00000310: 7b0e cc3d e1a3 09bd 6ade b83c 5421 d0bd
00000320: df7d 87bd e398 8abd 23e7 d63c a5ac 3abd
00000330: 072d afbd cb40 483d 0590 93bd a0c2 53b0
00000340: 7c2a 6c3c eb03 f43b 7a7f 313d 9793 633d
00000350: f95f 6dbd 2fc4 96bd d45a da3d e8d4 9f3d
00000360: d3f2 4abc 4b92 77b8 ffc0 003d e054 a5bd
00000370: 1bae 533d 8c62 0dbd 8b18 913b bfb8 92bd
00000380: ec55 5ab4 9df1 013d 4b07 b5bd b1b3 81bc
00000390: e848 5f3d 8067 d83d c408 d73d 1a28 4c3d
000003a0: 2f92 ee38 481f 8dbd 0597 b43d b91c 79bd
000003b0: a8a7 083d d289 0000 3b3c 96bd d3e8 a2bd
000003c0: b8c8 e13d fd36 91bd 468a 82bd 1155 ab3d
000003d0: fdb0 9abd 90e7 023e b271 ae3d 7218 b33d
000003e0: e185 6f3d c6b8 8fbd 4e05 12bd e2da 03bb
000003f0: 3d25 2ebd 78f5 97bd dfef 06bb 0ace 46bd

layers.16.bias f4 [2]
0.011627534 -0.014706436
00000000: 6a81 3e3c 43f3 70bc
